DC-net/gamma/Epoch99.pth (torch, 52395 bytes, 28 tensors)

e_conv1.depth_conv.weight f4 [3, 1, 3, 3]
-0.13592714 -0.15809631 -0.44045952 -0.23354386 -0.25594908 -0.22899328 -0.047874253 0.20215939
-0.010647259 -0.084953606 -0.32466218 0.020976935 -0.08630393 -0.06934838 -0.1042668 -0.07180749
-0.30139318 -0.047311682 0.115165085 0.031701032 0.020140653 -0.051835164 0.26013258 -0.09698934
0.23028782 0.3794969 -0.044978123
00000000: 7c30 0bbe 00e4 21be e983 e1be 1f26 6fbe
00000010: c20b 83be 377d 6abe cb17 44bd df02 4f3e
00000020: d771 2ebc 28fc adbd 1f3a a6be d2d7 ab3c
00000030: 1dc0 b0bd 8606 8ebd d589 d5bd ce0f 93bd
00000040: 3550 9abe e5c9 41bd acdb eb3d f1d8 013d
00000050: 03fe a43c 1c51 54bd 1930 853e 59a2 c6bd
00000060: 92d0 6b3e 6b4d c23e fb3a 38bd

e_conv1.depth_conv.bias f4 [3]
-0.2664581 0.20970605 -0.31938046
00000000: 326d 88be 2fbd 563e d685 a3be

e_conv1.point_conv.weight f4 [32, 3, 1, 1]
1.4793619e-07 -9.6931334e-21 3.8691e-41 0.010325058 -0.23883273 -0.22452547 0.00011630133 -2.759767e-06
-0.00030876044 0.0065584807 0.01645545 0.055742953 -0.42518237 -0.12439628 -0.1443651 -0.5249857
0.30613777 -0.012841497 -3.1637e-41 2.2138e-41 -3.321e-41 -0.34437454 0.020883694 0.19757034
0.34459606 -0.2866061 -0.10694831 5.7844147e-08 2.609423e-15 -1.4564505e-06 -0.3474788 -0.11031932
-0.07812475 -0.055665124 -0.19610716 0.018553216 4.198e-42 1.451395e-12 -3.1598432e-11 5.0384447e-10
-1.8419241e-26 0.0003619201 -0.0064270734 -0.048722297 -0.045878947 -0.2182205 0.011737359 -0.20303419
-0.15014508 0.15195887 -0.375363 0.2382524 0.3695578 -0.4587539 0.0010694481 0.0127775185
-0.00535306 -0.31158 0.14173162 -0.2974399 -0.3603349 0.22442321 -0.14116225 -0.33597857
-0.21601298 -0.5739632 3.5096992e-09 -2.2937648e-08 -2.0559689e-14 4.546868e-05 -6.0679e-41 -8.3806e-41
0.39798197 -0.46645066 0.033835266 0.12479592 0.1032623 0.047155295 -6.068e-41 1.649896e-17
-4.4912e-41 7.1423e-41 -1.958e-42 4.5233e-41 -0.33015284 0.2190111 0.026676351 2.2362e-41
0.0023881388 8.5165e-41 -5.832342e-10 2.1319366e-35 9.380209e-07 -2.5573817e-07 -1.9176669e-06 -4.3646e-41
00000000: 64d8 1e34 1e19 379e db6b 0000 6f2a 293c
00000010: 9190 74be 01ea 65be cde6 f338 7034 39b6
00000020: 20e1 a1b9 86e8 d63b 94cd 863c b952 643d
00000030: 81b1 d9be 7ac3 febd 72d4 13be 7665 06bf
00000040: 17be 9c3e 2465 52bc 3158 0080 b63d 0000
00000050: 935c 0080 dc51 b0be 4814 ab3c e14f 4a3e
00000060: e56e b03e 09be 92be b707 dbbd 5070 7833
00000070: 5c07 3c27 427b c3b5 bee8 b1be 18ef e1bd
00000080: deff 9fbd 1d01 64bd 51d0 48be eafc 973c
00000090: b40b 0000 0444 cc2b acf8 0aae e77e 0a30
000000a0: 536a b694 18c0 bd39 339a d2bb 0891 47bd
000000b0: 90eb 3bbd 3275 5fbe 0d4e 403c 32e8 4fbe
000000c0: a2bf 19be 1b9b 1b3e 942f c0be 70f8 733e
000000d0: ae36 bd3e cbe1 eabe b92c 8c3a cc58 513c
000000e0: b968 afbb 6a87 9fbe 1822 113e 0b4a 98be
000000f0: d17d b8be 33cf 653e d68c 10be 6205 acbe
00000100: 8232 5dbe 41ef 12bf 482f 7131 6c08 c5b2
00000110: 6a2f b9a8 a0b5 3e38 26a9 0080 9ee9 0080
00000120: 4bc4 cb3e 9fd2 eebe d996 0a3d 0195 ff3d
00000130: 2f7b d33d e925 413d 27a9 0080 112d 9823
00000140: 327d 0080 19c7 0000 7505 0080 177e 0000
00000150: cb09 a9be 7244 603e 5d88 da3c 563e 0000
00000160: 5282 1c3b 68ed 0000 7551 20b0 d6b4 e205
00000170: 4ecc 7b35 634c 89b4 44b1 00b6 ab79 0080

e_conv1.point_conv.bias f4 [32]
-3.528954e-35 0.004390609 -0.00014753504 0.009037509 0.3314845 -0.10824614 -5.1468436e-25 -0.060179096
0.3338139 -1.4749938e-06 -0.2566521 0.22750266 -0.0019910787 -0.00031551343 -5.78238e-05 0.19470054
0.32750928 0.5660538 0.0047501484 0.33839616 0.06703297 0.13062967 -1.1989503e-07 -5.1001475e-28
0.21590793 0.0021448105 -0.0005269659 -0.00040246974 -0.108860254 -0.0027380283 -0.00014747078 -0.0015628927
00000000: a2a1 3b86 19df 8f3b a3b3 1ab9 0f12 143c
00000010: 56b8 a93e 27b0 ddbd 7f49 1f97 5b7e 76bd
00000020: a8e9 aa3e 67f8 c5b5 e767 83be 75f6 683e
00000030: c27c 02bb 7f6b a5b9 d587 72b8 945f 473e
00000040: 4caf a73e e7e8 103f 22a7 9b3b 4342 ad3e
00000050: 9548 893d c9c3 053e 7fbc 00b4 50a1 2192
00000060: f816 5d3e f38f 0c3b 1524 0aba 9302 d3b9
00000070: 20f2 debd 7e70 33bb 63a2 1ab9 fad9 ccba

e_conv2.depth_conv.weight f4 [32, 1, 3, 3]
3.9568207e-20 -9.0689e-41 4.3545e-41 1.2948e-41 2.7588075e-16 -4.57626e-27 8.2796e-41 1.466e-42
-6.75e-43 0.022925274 0.018045515 0.016810099 0.026252344 0.02076805 0.012318566 0.02374746
0.02085687 0.0052971006 -2.4297728e-08 -1.3653053e-07 1.3610136e-07 -9.250705e-08 -1.8985938e-07 -1.116369e-07
-1.3331477e-08 2.5837778e-07 2.4146e-07 -2.3005919e-08 -2.6426197e-09 1.1183946e-09 6.4497314e-09 -3.4255805e-09
-9.578746e-09 3.8439913e-09 -1.7209832e-09 -1.6742934e-08 -0.14555281 -0.01796521 -0.037634734 -0.17939046
-0.110127516 0.16727617 -0.15574853 -0.11761898 0.09710547 0.007724384 0.005874176 -0.015647143
0.048158575 0.012918385 -0.00833584 0.06252559 -0.01395628 -0.0021127893 -1.5952023e-17 -2.6944e-41
-5.6046e-41 -5.1785e-41 -1.09207e-40 -3.1008e-41 5.045867e-28 -1.9301e-41 1.0444103e-20 -0.017899515
-0.013628133 -0.038714565 0.013805191 0.0098466715 -0.029257102 -0.0078002177 -0.020546753 -0.06330774
0.08655459 -0.10930872 0.14596406 0.109944984 -0.1315992 0.103200935 0.0063909763 0.17158058
0.15155202 -7.885783e-25 -1.3517402e-17 -2.6695548e-13 9.497503e-14 5.206052e-24 1.1324827e-24 1.8185093e-21
9.429201e-16 -1.1707322e-24 0.061570346 0.06157205 0.035338312 0.11003431 0.087489575 0.041538928
0.10761539 0.076169156 0.0108405985 -0.08628377 0.008639714 0.0964976 0.032491643 -0.03236508
-0.005471482 0.12976326 -0.02480526 0.15471049 -7.3079036e-28 -7.2341126e-12 6.5883e-41 -4.2401934e-20
-2.7865e-41 -3.0531e-25 1.4480596e-27 6.3123e-41 7.6692e-41 -4.583249e-31 1.345e-41 -9.732819e-20
-9.94917e-22 -3.0282e-41 6.9045e-41 5.354e-41 -3.9622e-41 -2.5553e-41 -0.008529274 -0.011323833
-0.0105875125 -0.009257899 -0.012114857 -0.012694597 -0.0075674476 -0.008016134 -0.010461191 0.13218084
0.08388059 -0.013177533 -0.13925219 0.06209966 0.06759225 -0.018901955 -0.084863 0.16045016
-0.193209 -0.17406966 0.07173917 0.19389969 -0.20293616 -0.024072535 0.16845159 0.15167001
0.12575366 -0.34364253 -0.0021272285 0.3133592 -0.27330378 0.11939841 0.05131751 -0.20124888
0.14826944 0.22804841 -0.00014713584 8.068586e-06 6.676151e-05 -0.00031111084 -0.00016157127 3.4792265e-05
-0.0005876665 -0.00046638565 -0.00046983248 0.14943255 0.07787504 -0.14462048 0.053413846 -0.091665134
-0.106058165 0.07684641 0.105258815 -0.037029188 -0.009376391 -0.08945277 -0.09065466 -0.030076323
-0.042726375 0.080306076 0.13331974 -0.029902631 0.095458716 -0.14713287 -0.21326073 -0.08390818
-0.13477257 -0.15661983 -0.110166885 0.17631984 -0.11738877 0.016907182 8.492059e-14 -4.74206e-40
-2.0326859e-29 -4.50401e-40 4.0697658e-21 -1.966e-42 -3.88752e-40 1.1245149e-15 7.515054e-12 7.7586e-41
-6.2666e-41 -1.2123e-41 7.3825e-41 -1.49622e-40 2.3036e-41 3.0520066e-12 5.143135e-12 -3.2852e-41
0.057071712 0.13893327 0.21930465 0.15536481 0.17151497 0.17008932 0.09809647 -0.06541269
0.17862913 -8.3864103e-07 -6.4182547e-07 -8.658322e-07 -6.864742e-07 -4.3190866e-07 -3.8696476e-07 -6.3393264e-07
-1.1189844e-06 -1.8007621e-07 3.3504e-41 6.2800896e-18 -5.2409e-41 -7.4199e-41 6.9652e-41 1.9363116e-12
-8.7863e-41 -6.846e-41 1.6185632e-16 4.979373e-19 -6.8518e-41 -5.506e-41 1.66347e-40 -8.2085e-41
7.06e-42 2.232e-42 8.3171e-41 -5.875914e-16 -0.0010929625 -0.017068656 -0.02408864 -0.06348227
00000000: 07db 3a1f cefc 0080 6379 0000 1824 0000
00000010: d008 9f25 ca48 b593 cde6 0000 1604 0000
00000020: e201 0080 c9cd bb3c 30d4 933c 55b5 893c
00000030: 280f d73c c221 aa3c d0d3 493c 098a c23c
00000040: 07dc aa3c 4d93 ad3b 45b7 d0b2 3a99 12b4
00000050: 4223 1234 4aa8 c6b3 26dc 4bb4 09bd efb3
00000060: 7508 65b2 2cb7 8a34 02a2 8134 8d9e c5b2
00000070: 7599 35b1 03b6 9930 709c dd31 7367 6bb1
00000080: c58f 24b2 1b14 8431 b787 ecb0 1ad2 8fb2
00000090: cc0b 15be c72b 93bc e126 1abd 22b2 37be
000000a0: 898a e1bd 724a 2b3e 8b7c 1fbe 38e2 f0bd
000000b0: 3cdf c63d d41c fd3b 297c c03b 702e 80bc
000000c0: ed41 453d a2a7 533c 0c93 08bc 6b0d 803d
000000d0: e2a8 64bc b976 0abb a621 93a3 1c4b 0080
000000e0: 3c9c 0080 5b90 0080 6d30 0180 7056 0080
000000f0: f0e8 1f12 ce35 0080 9548 451e 01a2 92bc
00000100: 8848 5fbc 2a93 1ebd 2b2f 623c ef53 213c
00000110: 97ac efbc f898 ffbb aa51 a8bc 7da7 81bd
00000120: 8843 b13d 40dd dfbd 9a77 153e d62a e13d
00000130: f1c1 06be 035b d33d 656b d13b d2b2 2f3e
00000140: 7430 1b3e 9c0d 7497 205a 79a3 5748 96aa
00000150: 61dd d529 3e66 c918 433e af17 1667 091d
00000160: 9de3 8726 7b29 b597 3031 7c3d f932 7c3d
00000170: e8be 103d ab59 e13d bc2d b33d b924 2a3d
00000180: 7565 dc3d 93fe 9b3d c49c 313c 8cb5 b0bd
00000190: 968d 0d3c 89a0 c53d f515 053d 3f91 04bd
000001a0: 1e4a b3bb a9e0 043e 6734 cbbc 6d6c 1e3e
000001b0: c298 6792 1887 feac a8b7 0000 cb3c 489f
000001c0: ad4d 0080 4dfa bc96 4774 e512 f6af 0000
000001d0: c9d5 0000 25bc 148d 7e25 0000 48cf e59f
000001e0: fd58 969c 6a54 0080 78c0 0000 3f95 0000
000001f0: 736e 0080 3b47 0080 5ebe 0bbc 9987 39bc
00000200: 3f77 2dbc 71ae 17bc 657d 46bc 00fd 4fbc
00000210: 5af8 f7bb 1a56 03bc 6a65 2bbc 6a5a 073e
00000220: 96c9 ab3d 94e6 57bc 2098 0ebe 375c 7e3d
00000230: ce6d 8a3d 46d8 9abc a7cc adbd 0c4d 243e
00000240: 95d8 45be 513f 32be fceb 923d a48d 463e
00000250: 7fce 4fbe c433 c5bc 937e 2c3e 624f 1b3e
00000260: 91c5 003e eaf1 afbe f968 0bbb 9e70 a03e
00000270: 79ee 8bbe 2787 f43d 4f32 523d 3014 4ebe
00000280: f2d3 173e 8685 693e 7a48 1ab9 505e 0737
00000290: 5002 8c38 971c a3b9 756b 29b9 e9ed 1138
000002a0: a20d 1aba 3985 f4b9 d953 f6b9 d904 193e
000002b0: f37c 9f3d 6417 14be 7ac8 5a3d eeba bbbd
000002c0: 0635 d9bd a761 9d3d ef91 d73d ebab 17bd
000002d0: 6f9f 19bc 0433 b7bd 26a9 b9bd 9f62 f6bc
000002e0: da01 2fbd 8377 a43d f884 083e 5df6 f4bc
000002f0: dc7f c33d 00aa 16be 0561 5abe 0dd8 abbd
00000300: d201 0abe f360 20be 2d9f e1bd 308d 343e
00000310: 8669 f0bd ee80 8a3c 6339 bf29 e529 0580
00000320: 8b23 ce8f 89e7 0480 5cc0 991d 7b05 0080
00000330: af3b 0480 470f a226 cb34 042d 47d8 0000
00000340: b0ae 0080 cb21 0080 cbcd 0000 16a1 0180
00000350: 3740 0000 10c4 562c 3ef5 b42c 945b 0080
00000360: 07c4 693d 8644 0e3e 6691 603e f417 1f3e
00000370: 9fa1 2f3e e52b 2e3e cde6 c83d 17f7 85bd
00000380: 8eea 363e f91e 61b5 e949 2cb5 896b 68b5
00000390: 2646 38b5 13e1 e7b4 08c0 cfb4 852b 2ab5
000003a0: 0330 96b5 f95a 41b4 655d 0000 c5b1 e722
000003b0: 1892 0080 d6ce 0080 29c2 0000 7d41 082c
000003c0: edf4 0080 d7be 0080 8e9b 3a25 14f7 1221
000003d0: 00bf 0080 7c99 0080 b5cf 0100 d2e4 0080
000003e0: ae13 0000 3906 0000 d9e7 0000 985c 29a6
000003f0: bc41 8fba 91d3 8bbc 8a55 c5bc fe02 82bd

e_conv2.depth_conv.bias f4 [32]
-0.12977521 0.10125389 -0.06214469 4.8038203e-08 -0.0127524175 0.20465058 0.20147721 -0.053174995
-0.24004935 0.23080833 0.074476525 -0.113770336 -0.020906402 -0.11743619 -0.13413775 -0.19766971
0.13626695 -0.1607622 0.17058648 0.11944153 -0.13993965 0.16969222 0.10468905 -0.18945041
-0.26766598 -0.061395574 -0.22316772 0.19032009 0.042170756 0.11893034 -0.0041805934 -0.06394702
00000000: cbe3 04be 335e cf3d 6e8b 7ebd 9052 4e33
00000010: 84ef 50bc ec8f 513e 0b50 4e3e 06ce 59bd
00000020: 7fcf 75be 0559 6c3e 2687 983d 6c00 e9bd
00000030: e743 abbc 6382 f0bd 685b 09be ee69 4abe
00000040: 9089 0b3e d99e 24be 39ae 2e3e c39d f43d
00000050: 574c 0fbe ccc3 2d3e 3667 d63d 4aff 41be
00000060: 840b 89be ed79 7bbd 1486 64be 45e3 423e
00000070: 3ebb 2c3d c091 f33d 5cfd 88bb a8f6 82bd

e_conv2.point_conv.weight f4 [32, 32, 1, 1]
0.00083611754 -0.0009026756 0.0005129085 -3.9215797e-10 0.0068456386 -0.0018574226 -0.0012736256 0.0011480555
0.0015518949 -0.0014671695 -0.00034124992 -0.0003661877 0.00019662053 0.0007728859 0.00087137916 0.0019278505
-0.001630193 0.001032458 -0.001124227 -0.0034456055 0.0003173965 -0.00029474706 -0.0007028108 0.0011876551
-0.0032220792 0.00047343757 0.0014001668 -0.0011507688 -0.0006406837 -0.0007619177 3.6338948e-05 0.0005178328
-0.00024917448 -0.11687391 0.06435239 3.9374942e-07 -0.080395386 -0.009296432 0.0088266935 0.11140827
0.14305086 0.021099417 0.11234703 0.024074089 0.007876104 -0.08127485 -0.13093384 0.0510889
0.1391164 -0.076358266 -0.055908 -0.022117874 0.15601552 -0.06149225 -0.0043434934 0.15588436
0.20934284 0.0070312875 -0.13390315 0.02328444 -0.04962364 -0.07913517 0.0029506704 0.0020897733
0.00023542155 -0.00037582827 9.498334e-05 9.940114e-11 0.004192044 -0.00066690147 -0.00039057058 -0.00024517247
-0.00015472942 -0.0005192712 -0.00065951707 0.0008093979 2.816361e-05 0.00020969973 0.00027425002 -0.00034906954
-0.005570698 -0.0065916236 -0.00038079394 -0.0011832732 0.00068057486 0.0060799657 -0.00018200953 0.0005404357
0.004364402 9.806323e-05 0.000507903 -0.00045384286 0.00027291337 -0.0002247571 1.561605e-06 9.763618e-05
-1.331059e-29 -1.368359e-16 -7.83e-43 3.3237e-41 1.7613458e-10 1.3612284e-10 1.2635178e-11 -4.287e-41
-2.858373e-20 5.119825e-16 -6.6758e-41 -7.4295e-41 3.687e-41 -7.1443484e-22 -2.7010155e-21 2.522297e-39
-2.3223021e-18 -2.0712629e-32 -1.906012e-14 -4.7442104e-20 -6.102535e-14 5.2631e-41 5.2557604e-32 -2.7628182e-16
4.336822e-14 1.746595e-39 8.3688893e-17 2.688004e-16 -6.6754e-41 1.33802894e-20 3.7269e-41 -2.9922e-41
-0.052387692 -0.08427516 0.036929883 1.5757983e-08 0.019578485 0.02636864 0.06017644 0.012556369
-0.0451009 -0.117852874 0.0040088603 0.030982535 0.0006185366 -0.0014338283 -0.03957552 0.01760678
-0.1127756 0.026792375 -0.059925072 -0.041068763 -0.03429947 -0.0697791 -0.0602557 0.019888267
-0.06493887 0.009764812 -0.085007064 -0.07033151 0.02215984 -0.02554361 0.0006504325 -0.017034994
0.054308187 0.0061468924 0.03093059 -1.0348974e-07 0.028754821 0.022812605 0.13401777 -0.008060059
-0.020610169 0.121089816 -0.013982473 -0.034016475 -0.003518006 -0.09603767 -0.058322385 -0.012572644
-0.06814274 -0.14933485 0.11573071 0.059522673 0.083977304 0.1703883 0.09581762 -0.030988282
-0.009135016 -0.049302433 -0.0051784157 -0.08526654 -0.04335961 0.029113572 0.0003612085 -0.0048344503
0.005859996 -0.014308435 0.003565096 -1.1159157e-07 0.13340142 -0.08074562 -0.042941406 -0.013907391
-0.043028772 0.0025302593 -0.05064271 0.017622888 0.0013340053 -0.00025377623 0.00044645098 0.07828731
-0.071112484 -0.3563419 -0.024539556 0.14387086 0.009841502 -0.049586315 -0.0036557512 0.022765482
-0.011789003 0.0024720945 0.0069216564 -0.023148274 0.014195322 -0.0040750667 0.00037892882 0.0028165912
0.00015248552 0.03778612 -0.0012662184 -3.0241472e-09 0.009490538 -0.050325524 0.061106205 -0.0011628746
-0.053205743 0.029236134 0.01080208 0.0069133104 -0.0003138713 0.006950486 0.025180453 -0.0055898074
-0.010679192 0.07422186 0.05834346 -0.08123406 0.007071687 0.021870868 -0.02638993 -0.07075137
-0.13047545 0.01408665 0.029121421 0.031689588 -0.02010874 0.0013848987 5.3227075e-05 -0.0026477235
00000000: e62e 5b3a 89a1 6cba b574 063a 5497 d7af
00000010: 6151 e03b c374 f3ba c9ef a6ba 5a7a 963a
00000020: f468 cb3a 0a4e c0ba cae9 b2b9 e2fc bfb9
00000030: ec2b 4e39 7f9b 4a3a 446d 643a eeaf fc3a
00000040: 33ac d5ba 8b53 873a cc5a 93ba abcf 61bb
00000050: 3d68 a639 4888 9ab9 d63c 38ba 18ab 9b3a
00000060: 8529 53bb b737 f839 cd85 b73a 65d5 96ba
00000070: 8ef3 27ba 6ebb 47ba a66a 1838 2cbf 073a
00000080: a2a3 82b9 975b efbd 30cb 833d 8264 d334
00000090: 56a6 a4bd 1050 18bc d69d 103c 052a e43d
000000a0: ed7b 123e afd8 ac3c 3316 e63d 0637 c53c
000000b0: c60a 013c 6e73 a6bd 8513 06be 9842 513d
000000c0: 8874 0e3e b961 9cbd c9ff 64bd 8b30 b5bc
000000d0: 88c2 1f3e 4cdf 7bbd dd53 8ebb 26a0 1f3e
000000e0: f85d 563e b766 e63b e81d 09be 03bf be3c
000000f0: 2842 4bbd 9f11 a2bd 0960 413b 94f4 083b
00000100: 7edb 7639 d10a c5b9 cb31 c738 de95 da2e
00000110: 6a5d 893b 00d3 2eba 7fc5 ccb9 7e8a 80b9
00000120: dd3e 22b9 b31f 08ba 71e3 2cba c62d 543a
00000130: e440 ec37 d8e2 5b39 37c9 8f39 5203 b7b9
00000140: 678a b6bb 8cfe d7bb 4ca5 c7b9 0f18 9bba
00000150: 9b68 323a 733a c73b d0d9 3eb9 07ac 0d3a
00000160: 4203 8f3b 4ca7 cd38 cb24 053a c2f1 edb9
00000170: d015 8f39 c6ac 6bb9 5798 d135 06c2 cc38
00000180: 44fc 868f d4c2 1da5 2f02 0080 a75c 0000
00000190: 7aa9 412f 2cab 152f c847 5e2d 8177 0080
000001a0: 9cfb 069f a491 1326 18ba 0080 1bcf 0080
000001b0: c766 0000 b8ec 579c 3d15 4c9d 2377 1b00
000001c0: 0c5b 2ba2 9d17 d78a a5ad aba8 fc09 609f
000001d0: b86a 89a9 b792 0000 8572 880b 0044 9fa5
000001e0: 2750 4329 cc04 1300 34f9 c024 f0f3 9a25
000001f0: 15ba 0080 1cbf 7c1e e467 0000 6953 0080
00000200: 7a94 56bd 7598 acbd ca43 173d 2c5c 8732
00000210: 0f63 a03c 0c03 d83c 927b 763d 3bb9 4d3c
00000220: b9bb 38bd d95c f1bd c25c 833b 16cf fd3c
00000230: 4a25 223a 4bef bbba f119 22bd 183c 903c
00000240: e5f6 e6bd af7b db3c fe73 75bd b837 28bd
00000250: 9a7d 0cbd 58e8 8ebd aece 76bd b8ec a23c
00000260: acfe 84bd 97fc 1f3c 2f18 aebd f709 90bd
00000270: 8e88 b53c d540 d1bc c981 2a3a f98c 8bbc
00000280: 4372 5e3d df6b c93b 2662 fd3c 163e deb3
00000290: 3b8f eb3c 80e1 ba3c f43b 093e 560e 04bc
000002a0: a8d6 a8bc f0fd f73d be16 65bc dc54 0bbd
000002b0: 598e 66bb 66af c4bd 74e3 6ebd 7efd 4dbc
000002c0: 6c8e 8bbd 3ceb 18be 3904 ed3d 0cce 733d
000002d0: 4bfc ab3d 457a 2e3e 073c c43d 23db fdbc
000002e0: 09ab 15bc 59f1 49bd b3af a9bb 39a0 aebd
000002f0: d999 31bd 967f ee3c 9660 bd39 4f6a 9ebb
00000300: 3605 c03b ed6d 6abc 63a4 693b 1da4 efb3
00000310: 629a 083e f65d a5bd 54e3 2fbd d3db 63bc
00000320: f03e 30bd b5d2 253b bb6e 4fbd e05d 903c
00000330: cad9 ae3a 450d 85b9 a311 ea39 1955 a03d
00000340: 6ca3 91bd 7272 b6be 2e07 c9bc e252 133e
00000350: 403e 213c 051b 4bbd 5495 6fbb ad7e ba3c
00000360: aa26 41bc dd02 223b 10cf e23b 73a1 bdbc
00000370: 7f93 683c 2388 85bb f7aa c639 8f96 383b
00000380: 85e4 1f39 9ec5 1a3d 3df7 a5ba 5cd1 4fb1
00000390: 347e 1b3c 2322 4ebd 804a 7a3d 996b 98ba
000003a0: 44ee 59bd 9e80 ef3c 35fb 303c 0d89 e23b
000003b0: 188f a4b9 e7c0 e33b 3d47 ce3c b42a b7bb
000003c0: c7f7 2ebc a101 983d 8df9 6e3d 0b5e a6bd
000003d0: 9cb9 e73b 892a b33c b22f d8bc 18e6 90bd
000003e0: 5b9b 05be b1cb 663c 0c90 ee3c f1cc 013d
000003f0: 16bb a4bc 7d85 b53a 2340 5f38 6e85 2dbb

e_conv2.point_conv.bias f4 [32]
0.01114954 0.15280637 0.00940872 -1.2692259e-05 0.053054042 -0.07338841 0.037512064 0.14090127
-1.3859268e-13 -3.9619263e-09 0.047599703 -2.6233394e-24 -0.06419272 0.026701834 -4.193876e-25 -2.6745114e-05
-0.0012839707 0.047124796 -4.8301805e-25 0.082485564 -0.0015331195 -0.0028248706 0.12216289 -6.3109316e-13
-0.00092779304 0.04566295 -2.069668e-13 -1.8670048e-18 -0.030384826 -0.00013421493 -2.7416995e-15 -2.6652368e-11
00000000: 8fac 363c 4679 1c3e 0827 1a3c d6f0 54b7
00000010: 324f 593d aa4c 96bd 40a6 193d 6c48 103e
00000020: 9f0a 1caa 7921 88b1 e8f7 423d 97f8 4a98
00000030: 7977 83bd cebd da3c 4fcb 0197 b25a e0b7
00000040: e84a a8ba ee05 413d a27c 1597 31ee a83d
00000050: f4f2 c8ba 7721 39bb 8a30 fa3d 0ea3 31ab
00000060: 2337 73ba 1309 3b3d 1e06 69aa b9c2 09a2
00000070: 99e9 f8bc 0cbc 0cb9 6e8f 45a7 cc6f eaad

e_conv3.depth_conv.weight f4 [32, 1, 3, 3]
9.4742376e-17 1.1707794e-16 -3.0319763e-17 2.7146554e-17 -3.064842e-17 -3.93262e-17 -5.1893933e-13 -2.1427707e-11
4.467073e-17 5.0178215e-08 7.4481754e-08 2.9498821e-08 -8.609509e-08 1.16580885e-07 -6.93755e-08 -8.949712e-08
-1.7965999e-07 -1.4343375e-07 1.4738553e-08 -5.627291e-09 5.8784155e-09 -2.6046674e-08 2.5087268e-09 -3.335657e-08
4.508517e-09 -7.042868e-10 -1.7578726e-08 -2.8005e-41 -5.1723933e-20 5.8512503e-24 -6.7377e-41 8.8313e-41
1.9336434e-13 -6.5896e-41 1.588284e-26 -9.5916e-41 1.4346256e-10 -1.01396766e-10 -2.2788471e-10 -3.0850746e-11
-1.3201777e-10 8.821209e-11 2.703461e-11 9.750026e-11 7.190221e-11 1.5947637e-07 1.9759172e-07 6.124813e-08
-2.6918406e-07 6.2652435e-07 8.127178e-07 2.4510243e-07 5.195467e-07 2.411103e-07 2.1834467e-06 1.011965e-06
-1.6357652e-07 2.354138e-06 5.215319e-07 -9.630261e-07 2.5267975e-06 6.968115e-07 -1.2865772e-06 7.041769e-11
6.157189e-11 5.1998267e-11 1.5864471e-10 2.1768656e-10 1.8000529e-10 6.1395604e-11 1.08624e-10 1.3137332e-10
-2.3381379e-15 -8.6045e-41 -6.6855e-41 9.3939e-41 3.7834623e-13 -5.9395e-41 7.5866e-41 -1.195961e-15
6.7537e-41 4.2647445e-13 2.2190974e-13 -3.7700206e-13 -1.8008766e-13 2.454158e-13 -4.7055696e-11 -1.6004308e-13
-7.812784e-11 -1.5055435e-13 1.5317866e-08 3.72795e-09 8.134159e-09 7.318939e-09 1.879975e-08 1.1079459e-08
1.4547409e-08 1.9917834e-08 9.498518e-09 -2.5009552e-26 8.09e-42 -2.1630712e-17 -8.3509044e-17 -1.5675e-41
-7.594771e-15 -1.351977e-12 -1.0123059e-18 9.860448e-21 6.3759884e-08 2.4576934e-07 6.835817e-08 -7.524228e-09
2.2178666e-08 3.0494807e-08 -4.300565e-09 1.8851209e-08 3.9613475e-08 3.996271e-06 -3.5691767e-06 -2.0615673e-05
6.374392e-06 -7.688322e-06 -2.6805743e-05 4.0693844e-06 -9.945905e-06 -2.9115143e-05 2.1626e-41 -2.934159e-18
1.1940681e-23 -9.3113e-41 -1.5335553e-24 -7.0352e-41 -4.5562e-41 5.1089e-41 6.248e-41 6.7202e-41
8.4423e-41 -2.4964046e-12 7.8160257e-14 1.5281233e-13 -9.0332e-41 1.1809236e-14 -1.9760246e-12 6.1092e-41
2.0193803e-33 4.415148e-34 2.9215063e-23 8.0890137e-19 1.4475689e-33 3.6987094e-36 1.1085895e-12 -1.6931703e-33
-1.6857418e-34 -9.498761e-11 -1.7940937e-11 6.962346e-11 -1.1414311e-10 -3.609771e-11 8.10632e-11 -2.0037692e-10
-4.329904e-11 5.6291284e-11 -7.2161e-41 -6.762e-41 1.1718293e-26 7.1218e-41 -8.709e-42 -1.7135e-41
8.3184e-41 9.123922e-19 -2.5892e-41 1.7352593e-07 3.069829e-08 -6.1989454e-08 1.1052722e-07 1.8782613e-08
-1.6483324e-07 2.0518469e-07 4.0978215e-08 -9.117058e-08 -4.1458897e-23 7.3210173e-23 -2.0613574e-23 1.2460409e-22
1.8441323e-21 -1.2854983e-22 1.2804828e-22 2.96534e-23 -1.3908925e-22 4.6221095e-18 7.284189e-12 -5.8501178e-15
-2.316599e-13 -1.9743424e-27 2.6397632e-27 4.8831572e-29 5.503394e-28 -2.7265806e-27 -1.0409286e-08 8.138052e-09
8.898588e-09 -5.402861e-09 1.6489416e-08 4.0147587e-09 -3.991389e-09 -9.470188e-11 8.022869e-09 2.2324448e-17
1.1478482e-16 -9.419292e-17 1.06041815e-16 -1.1880176e-16 -2.0033494e-16 3.6432876e-17 9.861806e-17 -1.1357186e-16
-1.6639e-41 -1.635e-41 -8.248942e-18 -6.6302e-41 -1.4845439e-11 -4.9016e-41 -8.5402e-41 1.2032482e-21
1.3101268e-12 -3.9055228e-16 -3.484293e-16 -2.536613e-16 1.5551951e-16 2.6227813e-12 -3.9391325e-16 7.752908e-18
-4.5300307e-16 1.7143008e-14 1.0508191e-15 -1.552187e-20 -1.5329158e-20 -1.5500361e-20 2.9316257e-20 -8.169611e-21
3.413178e-20 -1.1296238e-20 -6.399373e-20 -6.936e-41 -2.6388e-41 -1.41391e-40 -2.1268402e-17 2.5744533e-19
8.005946e-33 -1.07781e-40 2.8617e-41 -4.638242e-22 -3.3992265e-08 -2.774763e-08 -2.4871477e-08 -3.8231804e-08
00000000: 0776 da24 4ffb 0625 42d3 0ba4 fd61 fa23
00000010: 4557 0da4 2f5c 35a4 8511 12ab e87a bcad
00000020: e401 4e24 8883 5733 c7f2 9f33 9864 fd32
00000030: 47e3 b8b3 055b fa33 96fb 94b3 9031 c0b3
00000040: 90e8 40b4 c502 1ab4 d734 7d32 2d5a c1b1
00000050: 17fb c931 3ebd dfb2 fd65 2c31 f043 0fb3
00000060: 56e9 9a31 c797 41b0 0700 97b2 114e 0080
00000070: 6642 749f fa5b e218 d2bb 0080 2ef6 0000
00000080: 7ab5 592a b1b7 0080 c94b 9d14 600b 0180
00000090: 1fbd 1d2f 4ef9 deae d88f 7aaf daae 07ae
000000a0: b327 11af fefa c12e 88cc ed2d c467 d62e
000000b0: 591d 9e2e 883c 2b34 9929 5434 8487 8333
000000c0: 6084 90b4 6d2e 2835 8b29 5a35 9f96 8334
000000d0: fa76 0b35 f371 8134 5487 1236 dad2 8735
000000e0: 92a3 2fb4 c8fb 1d36 66ff 0b35 5341 81b5
000000f0: 0d92 2936 860c 3b35 75ae acb5 a3d9 9a2e
00000100: e565 872e d8b0 642e 846e 2e2f 5259 6f2f
00000110: fcea 452f a702 872e e0dd ee2e 4d72 102f
00000120: 087b 28a7 dcef 0080 5dba 0080 dd05 0100
00000130: 70fd d42a 92a5 0080 7cd3 0000 2c5b aca6
00000140: 44bc 0000 7215 f02a 21d9 792a b93b d4aa
00000150: bcc2 4aaa 2528 8a2a 01f4 4eae 4731 34aa
00000160: 10ce abae 5682 29aa 5894 8332 6517 8031
00000170: 69be 0b32 117a fb31 167d a132 fa57 3e32
00000180: 2eec 7932 c817 ab32 ed2e 2332 bfae f794
00000190: 8d16 0000 1382 c7a3 0a8f c0a4 b22b 0080
000001a0: b3d0 08a8 1b46 beab d663 95a1 3342 3a1e
000001b0: 5eec 8833 48f2 8334 4dcc 9233 e843 01b2
000001c0: 6783 be32 65f9 0233 2bc4 93b1 3fee a132
000001d0: 7a23 2a33 b517 8636 fd85 6fb6 d2ef acb7
000001e0: 9ce3 d536 17fd 00b7 e5dc e0b7 bf8b 8836
000001f0: 56dd 26b7 4b3c f4b7 493c 0000 b280 58a2
00000200: 63f7 6619 9003 0180 624e ed97 1dc4 0080
00000210: 027f 0080 6a8e 0000 2bae 0000 55bb 0000
00000220: 56eb 0000 3aab 2fac 5200 b029 280d 2c2a
00000230: cffb 0080 7dbc 5428 e50c 0bac 4daa 0000
00000240: 78c3 2709 edb7 1208 7f46 0d1a dcbe 6e21
00000250: c584 f008 6153 9d04 2505 9c2b c0a9 0c89
00000260: d212 6087 45e1 d0ae 66cf 9dad 861a 992e
00000270: dc00 fbae 69c2 1eae 8642 b22e 1751 5caf
00000280: 636e 3eae 5a92 772e 28c9 0080 7fbc 0080
00000290: ce1a 6814 87c6 0000 4718 0080 c42f 0080
000002a0: e2e7 0000 34a5 8621 2d48 0080 7252 3a34
000002b0: 20d9 0333 101f 85b3 fb5a ed33 6757 a132
000002c0: 04fd 30b4 bd50 5c34 0600 3033 8ec9 c3b3
000002d0: a17b 489a e702 b11a bd5c c799 19a3 161b
000002e0: b556 0b1d 3f68 1b9b 06cd 1a1b 2265 0f1a
000002f0: 0a26 289b 9786 aa22 1225 002d d0c5 d2a7
00000300: b669 82aa 6c6c 1c93 c224 5113 019b 7710
00000310: d668 2e12 a005 5893 86d4 32b2 88cf 0b32
00000320: 67e0 1832 11a4 b9b1 9ca4 8d32 31f2 8931
00000330: a124 89b1 6b40 d0ae f3d4 0932 1de8 cd23
00000340: 8056 0425 b031 d9a4 0a84 f424 17f8 08a5
00000350: 70f8 66a5 5904 2824 d465 e324 7ff0 02a5
00000360: 622e 0080 942d 0080 872a 18a3 d3b8 0080
00000370: f594 82ad a388 0080 11ee 0080 69d4 b51c
00000380: 4b62 b82b 5823 e1a5 17db c8a5 cd39 92a5
00000390: 424d 3325 d48f 382c 5613 e3a5 1304 0f23
000003a0: ba91 02a6 1669 9a28 6270 9726 9499 929e
000003b0: a1c7 909e 9365 929e 2e71 0a1f d151 1a9e
000003c0: ca2e 211f 4161 559e d619 979f 59c1 0080
000003d0: 8f49 0080 248a 0180 982a c4a3 0af8 9720
000003e0: e946 260a 732c 0180 c64f 0000 a92e 0c9c
000003f0: e4fe 11b3 af59 eeb2 f5a4 d5b2 5034 24b3

e_conv3.depth_conv.bias f4 [32]
2.2777153e-14 8.538392e-06 0.00012660692 -0.0003872561 -3.480963e-07 -7.3060414e-06 0.0003801478 -1.6360923e-07
1.7409081e-06 0.0003097638 -1.9441861e-06 0.00060328864 -1.6396858e-06 -0.0019931935 1.7935242e-09 -5.189588e-38
3.952094e-23 1.3235134e-08 1.5938252e-08 0.00012004631 -0.00029146083 0.0006690399 -6.4465974e-07 -0.0011471583
1.2987711e-07 -3.8645954e-15 -2.5805164e-06 0.002240731 3.1339074e-05 -9.5644916e-17 0.0017364578 1.2815159e-11
00000000: 8a28 cd28 1d40 0f37 c9c1 0439 a208 cbb9
00000010: fee1 bab4 6b26 f5b6 934e c739 90ac 2fb4
00000020: 26a9 e935 cb67 a239 dd78 02b6 0426 1e3a
00000030: 2d13 dcb5 3da0 02bb 0680 f630 2646 8d81
00000040: 8e1c 3f1a bc60 6332 96e8 8832 5fc1 fb38
00000050: 36cf 98b9 8262 2f3a ae0c 2db5 3f5c 96ba
00000060: 5974 0b34 9a3c 8ba7 ef2c 2db6 3ad9 123b
00000070: 1372 0338 cb8a dca4 db99 e33a 5872 612d

e_conv3.point_conv.weight f4 [32, 32, 1, 1]
-7.245431e-28 -4.4633722e-20 7.3313995e-19 2.6126646e-18 -3.1734071e-21 1.5179341e-19 2.3770545e-18 9.749497e-22
-3.7657684e-21 -2.0322039e-18 2.1731923e-20 4.3202883e-19 -1.19872276e-20 1.4392595e-18 -1.535515e-23 4.3079e-41
1.6736385e-35 5.9943266e-22 4.380808e-22 -1.1486786e-18 2.1106367e-18 1.3253436e-18 -1.06882535e-20 2.8036726e-18
6.4531543e-22 6.641018e-28 2.3448099e-20 7.4616556e-19 3.9083193e-19 -5.6538845e-29 3.927016e-18 2.0385401e-25
-6.1964034e-17 1.5046875e-06 -3.2208867e-05 -1.4674494e-06 -7.8022575e-11 8.022839e-06 0.00022503703 -3.648839e-09
9.417809e-06 -1.6534783e-05 -1.5332585e-08 1.8500554e-05 1.1882458e-05 -0.0026051588 3.5545435e-13 1.87593e-40
1.9693844e-21 -3.0996164e-11 -5.470683e-10 1.0312338e-06 -1.2342529e-06 4.554352e-05 3.934853e-07 0.00033625617
-5.6733916e-07 4.2005667e-17 -8.899528e-10 -0.000654217 -7.334191e-05 -2.6025096e-18 -0.00019799966 2.3209266e-11
-8.764704e-21 -1.4033785e-12 -1.9358697e-11 4.0288904e-11 3.6492036e-14 1.0718088e-12 -7.431459e-11 1.6804915e-14
-3.8377e-13 -4.813226e-11 2.717897e-13 -9.513599e-11 3.348392e-13 4.5589768e-10 8.627202e-17 -7.3598e-41
2.2245231e-29 -4.0880412e-16 -1.6378557e-15 -1.4113196e-11 2.8213057e-11 -1.0617308e-10 9.478735e-14 1.9865318e-10
-2.1149874e-14 -2.2586406e-20 2.6714834e-13 -3.7561373e-10 -6.094369e-12 1.2367727e-21 -3.205039e-10 -6.2274484e-19
1.4843937e-24 -9.180574e-17 -1.6218819e-15 3.3031653e-15 -1.0557126e-17 7.5937126e-17 -2.8781673e-15 1.3853125e-18
2.9684998e-17 4.7817047e-15 1.1888521e-17 -4.0175243e-15 -4.2334895e-17 1.5674966e-14 -2.1154306e-20 -3.4857e-41
-1.4468218e-33 -1.39421e-19 -1.6627461e-19 -7.8747256e-15 -1.3803792e-15 1.4647163e-14 5.6217837e-18 4.9347093e-14
-1.3742823e-19 -3.9665884e-25 2.1253713e-17 -1.1344299e-14 1.7240261e-16 2.2388233e-27 -1.5538684e-14 -8.638934e-22
-3.0653e-41 7.086e-42 -3.0191e-41 -6.7587e-41 4.574e-41 -6.0463e-41 5.5281e-41 -1.00074e-40
6.2443e-41 -9.902e-42 6.0514e-41 2.023e-41 7.1849e-41 -1.4009e-41 -2.4205e-41 -1.9785e-41
-2.3849e-41 6.084e-42 -9.093e-42 6.15e-42 2.9708e-41 6.7586e-41 -7.825e-41 -6.5617e-41
3.0517e-41 1.6562e-41 -7.4782e-41 1.2334e-41 8.69e-42 9.9613e-41 -2.6918e-41 -1.578e-41
2.7618395e-25 -8.036428e-18 -1.2309623e-16 1.4613877e-16 4.480632e-19 2.8890704e-18 -5.1484547e-16 1.218962e-19
-2.5794188e-18 -1.7471366e-16 2.3476095e-18 -5.582761e-16 2.283689e-18 3.1237385e-15 2.3766002e-21 -2.485e-42
-2.2400776e-34 -2.3517593e-20 -2.2063487e-20 -1.0912058e-16 5.1609145e-17 -7.805245e-16 7.517006e-19 1.521417e-15
-1.2509278e-19 7.6105134e-25 -8.894881e-19 -3.3831269e-15 -2.1833634e-17 -1.9719791e-26 -2.5148736e-15 -3.806418e-22
1.7038905e-23 -6.7234145e-16 -9.2659755e-15 2.7674328e-14 3.093788e-17 7.035538e-16 -2.9563584e-14 1.2214632e-18
-1.7295617e-16 -2.0980701e-14 1.5992309e-16 -4.5435593e-14 1.910189e-16 9.115382e-14 -1.3298576e-19 8.1945e-41
-7.063909e-33 -9.950494e-19 -1.0478947e-18 -9.7669506e-15 2.3377928e-14 -4.611297e-14 4.9100025e-17 7.3674424e-14
-5.386414e-18 -7.0464003e-23 1.8717878e-16 -1.1382361e-13 -1.967778e-15 -3.5429612e-25 -1.06266246e-13 -1.4041808e-21
-2.7245723e-22 -3.055979e-14 -3.937425e-13 1.1644561e-12 5.579695e-16 2.5414192e-14 -1.1570832e-12 5.2469895e-16
-6.2291e-15 -9.329601e-13 5.8041865e-15 -1.8072503e-12 6.325293e-15 5.654455e-12 -1.2871215e-17 -7.8777e-41
7.7037076e-31 -4.8683235e-17 -5.1282402e-17 -2.9241317e-13 7.4537734e-13 -2.0235486e-12 2.314058e-15 3.3432582e-12
-4.7401134e-16 -1.0930426e-21 3.0080952e-15 -6.288829e-12 -1.01242053e-13 -1.1799586e-22 -4.968593e-12 -1.9952372e-20
00000000: eb9d 6592 dcc6 529f 7d62 5821 d7c7 4022
00000010: 9fc6 6f9d be34 3320 4a65 2f22 8a54 931c
00000020: 4744 8e9d 3ff3 15a2 9140 cd1e 5a06 ff20
00000030: ad6e 629e b065 d421 8381 9499 1678 0000
00000040: c6f8 b105 db2a 351c dc66 041c da83 a9a1
00000050: cdbc 1b22 1196 c321 39e5 499e e1df 4e22
00000060: dd08 431c 5776 5212 0676 dd1e ad3a 5c21
00000070: dab4 e620 cf57 8f90 9ee1 9022 ea5b 7c16
00000080: 1ce1 8ea4 abf4 c935 0218 07b8 2df5 c4b5
00000090: ce92 abae d599 0637 ebf7 6b39 0ebf 7ab1
000000a0: 2f01 1e37 2db4 8ab7 b6b4 83b2 a331 9b37
000000b0: c55a 4737 50bb 2abb 5f1a c82a ef0a 0200
000000c0: 6fcd 141d 9452 08ae 8260 16b0 ec68 8a35
000000d0: 9ba8 a5b5 fb05 3f38 3540 d334 8a4b b039
000000e0: 404b 18b5 8ab7 4124 dca0 74b0 c27f 2bba
000000f0: 23cf 99b8 0408 40a2 219e 4fb9 9f26 cc2d
00000100: 828f 259e 0a82 c5ab e947 aaad 4631 312e
00000110: 7458 2429 fbd7 962b 656b a3ae 7f5d 9728
00000120: 160b d8aa 1bb0 53ae 0601 992a cd34 d1ae
00000130: 6a7f bc2a e5a1 fa2f 03ee c624 29cd 0080
00000140: ec97 e10f d7a8 eba5 360a eca6 2f48 78ad
00000150: 282a f82d 217a e9ae 3071 d529 e66b 5a2f
00000160: 4a80 bea8 9452 d59e 2264 962a ef7e ceaf
00000170: 326d d6ac 54e5 ba1c ea32 b0af 45cd 37a1
00000180: e5b2 e517 8bb0 d3a4 e1bc e9a6 a504 6e27
00000190: 9ebe 42a3 5e19 af24 d164 4fa7 a06f cc21
000001a0: dce5 0824 7147 ac27 f44d 5b23 1fbf 90a7
000001b0: 393c 43a4 0330 8d28 f9cb c79e 2b61 0080
000001c0: fe64 f088 6999 24a0 6b4d 44a0 c3db 0da8
000001d0: 01ef c6a6 0fee 8328 3f68 cf22 533d 5e29
000001e0: 223f 22a0 1a85 f596 e907 c423 585c 4ca8
000001f0: 45c4 4625 bb60 3113 c4f5 8ba8 428c 829c
00000200: 7355 0080 c113 0000 2954 0080 68bc 0080
00000210: 817f 0000 8ca8 0080 1a9a 0000 f716 0180
00000220: 11ae 0000 9a1b 0080 b0a8 0000 6538 0000
00000230: 49c8 0000 0d27 0080 7943 0080 2737 0080
00000240: 7b42 0080 f610 0000 5919 0080 2511 0000
00000250: d052 0000 67bc 0000 21da 0080 eab6 0080
00000260: 1255 0000 2b2e 0000 76d0 0080 6222 0000
00000270: 3918 0000 ae15 0100 094b 0080 fd2b 0080
00000280: 18f3 aa16 f53e 14a3 98eb 0da5 8d7c 2825
00000290: b33e 0421 ff2c 5522 e464 14a6 dee8 0f20
000002a0: d853 3ea2 5f6e 49a5 1739 2d22 81e9 20a6
000002b0: aa81 2822 ce16 6127 2292 331d ed06 0080
000002c0: f2e0 9487 0d1e de9e 3d62 d09e 6c9d fba4
000002d0: 5301 6e24 8bf8 60a6 e4dc 5d21 6142 db26
000002e0: f9ae 13a0 b388 6b17 e943 83a1 adc7 73a7
000002f0: 3661 c9a3 9c4b c394 3b37 35a7 7715 e69b
00000300: 49ca a419 0bca 41a6 c5eb 26a8 a844 f928
00000310: 00ad 0e24 1cc9 4a26 7e24 05a9 9341 b421
00000320: a767 47a5 34fa bca8 f760 3825 ac9f 4ca9
00000330: d43a 5c25 9a42 cd29 7b00 1da0 6ee4 0000
00000340: 2fb6 128a e7d7 92a1 58a4 9aa1 1cf2 2fa8
00000350: d591 d228 a2ac 4fa9 146f 6224 6ae6 a529
00000360: 3eb9 c6a2 1b5f aa9a 6dcd 5725 6c27 00aa
00000370: 19cb 0da7 764c db96 524a efa9 9d31 d49c
00000380: b7b0 a49b 0aa1 09a9 46a8 ddaa f4e1 a32b
00000390: e2d2 2026 23e9 e428 51d8 a2ab f33b 1726
000003a0: 4f6d e0a7 6e4d 83ab 2c1e d127 0e59 feab
000003b0: 88e4 e327 cef2 c62c 986e 6da3 99db 0080
000003c0: e6ff 790d 0583 60a4 937f 6ca4 2e9d a4aa
000003d0: 19ce 512b 0365 0eac d6be 2627 c942 6b2c
000003e0: dd9f 08a6 0a2d a59c 90c1 5827 bc44 ddac
000003f0: 12fa e3a9 f3a5 0e9b 1bd1 aeac e071 bc9e

e_conv3.point_conv.bias f4 [32]
-6.5568016e-15 0.052676678 5.7605052e-06 -6.6457478e-12 -2.5546039e-19 1.5931203e-12 1.9622583e-11 2.4044127e-07
1.0331408e-06 0.0015902598 -1.7143144e-20 -1.6679181e-18 -5.1966325e-21 -6.993221e-17 -7.137138e-13 4.0737043e-05
0.00014215885 0.06585296 1.5344343e-31 -2.9945422e-26 -1.0613746e-15 -1.2044997e-14 0.00059772225 -2.90701e-14
-6.435008e-14 0.08841225 -5.992654e-14 0.0018773114 -7.609975e-18 -7.3715777e-19 6.3917726e-16 0.0009661449
00000000: d23b eca7 80c3 573d 5d4a c136 93d3 e9ac
00000010: 15cc 96a0 3536 e02b 219a ac2d ff15 8134
00000020: 73aa 8a35 4470 d03a 94e9 a19e 2a24 f6a1
00000030: bf52 c49d b140 a1a4 80e4 48ab 11dd 2a38
00000040: 7a10 1539 ebdd 863d 532e 470c 5548 1495
00000050: d0f5 98a6 bffb 58a8 76b0 1c3a 8beb 02a9
00000060: 4ce7 90a9 7b11 b53d 4cf1 86a9 1e10 f63a
00000070: 1761 0ca3 1192 59a1 f53a 3826 e344 7d3a

e_conv4.depth_conv.weight f4 [32, 1, 3, 3]
8.490508e-36 -8.264274e-36 -5.76244e-37 8.5728325e-12 3.4031372e-36 -5.4622193e-36 8.4105824e-36 -4.550318e-36
6.8624966e-38 -3.1884734e-10 1.8477488e-10 -1.636076e-10 -2.1804976e-10 1.5268622e-10 -2.3056626e-10 1.7070999e-10
-1.6121639e-10 2.4057664e-10 -4.536813e-21 -4.9594603e-21 -4.1993097e-12 -5.227046e-21 -6.1080842e-21 -1.1438221e-20
-4.1863764e-21 -5.5052707e-21 -1.1022315e-20 -2.7307783e-17 -3.3465855e-17 -1.4479912e-17 -2.3284373e-17 -5.689526e-17
-1.1547043e-17 -4.720415e-17 -3.2887047e-17 -2.1932988e-17 1.0409e-41 1.096e-42 1.6346e-41 -6.8009e-41
-6.1947e-41 4.1338e-41 -5.58565e-40 6.8912e-41 2.2072e-41 -1.4508517e-20 -1.8540174e-20 -9.373762e-13
-1.1599693e-16 -2.3211879e-20 -2.2045085e-20 -1.1241612e-20 -7.5697613e-22 -2.0187128e-19 1.1118031e-21 1.3142168e-21
-2.9379763e-15 1.099323e-21 8.615606e-22 5.496411e-21 9.225591e-22 1.0424578e-21 6.9503654e-22 -2.2055424e-12
7.7003734e-24 1.3699734e-24 8.017047e-25 -3.1249482e-11 -6.2358015e-25 9.262016e-16 7.2144297e-14 6.9720153e-25
-3.9141637e-18 -4.4720176e-18 -5.7597517e-18 -4.5429313e-18 -5.49845e-18 -5.239819e-18 -6.4108586e-18 6.6953024e-17
-5.0086357e-18 2.863883e-19 -3.579099e-13 5.6367835e-19 7.0804e-19 7.4228934e-19 8.69019e-19 6.5110483e-19
7.46404e-19 1.0684455e-18 -9.579645e-13 1.18607445e-35 2.454132e-26 -3.1645598e-12 3.1825118e-36 1.9959438e-35
6.674099e-20 -2.26293e-35 4.140085e-35 1.528e-41 -3.3858e-41 -7.264196e-24 2.3413e-41 5.4067664e-18
-9.484083e-22 6.430168e-13 6.9877e-41 3.1760404e-24 1.2766638e-12 -2.4628539e-11 4.5356e-41 -1.02906e-40
2.2793806e-18 -6.3042e-41 1.3739314e-11 9.30382e-21 1.797683e-12 -4.0143223e-22 -5.957634e-22 -4.4169627e-22
-5.929477e-22 1.0686528e-21 6.652023e-14 -3.6362244e-22 -6.1268875e-22 1.2356389e-14 2.6084878e-27 1.0995959e-15
-8.107791e-27 6.6295706e-12 -7.46287e-27 -3.28624e-17 -2.212251e-26 3.364382e-27 4.001246e-27 4.483359e-23
-6.443172e-21 8.2090334e-14 -1.8085006e-21 1.7956695e-11 1.9970952e-22 -4.7860427e-16 -4.0492494e-21 1.1079325e-21
3.0705466e-10 3.030118e-11 2.693255e-10 1.4345934e-10 3.5535415e-11 -1.7073894e-11 3.6484444e-11 1.3586277e-10
1.882616e-10 3.8416295e-07 1.3786855e-07 3.6884174e-08 3.9941222e-07 2.618578e-07 5.8533757e-08 1.1531339e-07
3.6114037e-07 6.470051e-08 3.5059994e-30 5.553e-42 1.0814e-41 -5.7263e-41 -1.3342e-41 -1.9329654e-14
-7.7265e-41 -4.4595e-41 1.5277e-41 -4.584441e-15 -4.1379e-41 -4.8852e-41 7.2639e-41 -2.029007e-21
2.2405e-41 -4.5614397e-15 3.9194663e-25 -6.3245e-41 6.5216e-41 -1.0384085e-19 4.142477e-25 2.9524e-41
-5.592154e-25 -8.6057e-41 2.801857e-36 -4.391684e-15 -8.63e-43 -4.6610054e-20 -1.667031e-12 -3.2154537e-12
-6.216796e-13 -2.1639717e-20 -2.56256e-20 -8.531527e-17 -2.4905447e-20 -2.503898e-20 -4.1762703e-19 -1.5109741e-18
3.9550026e-11 -7.224788e-19 -5.2149023e-19 9.660659e-15 3.0732645e-17 -7.732784e-19 -2.541078e-18 -1.06893395e-32
-2.0780826e-37 2.4764462e-37 1.3697448e-35 -7.106029e-38 -7.821495e-33 -1.1990318e-37 -4.46815e-40 1.3179623e-35
4.6661394e-20 4.0764827e-20 6.587315e-20 4.919468e-20 1.883445e-14 4.1160995e-20 -1.32282215e-20 1.3089034e-20
4.1337107e-20 -3.2707496e-13 7.230444e-17 5.1271943e-17 5.6075494e-17 5.0654903e-17 9.3040183e-17 6.449503e-17
8.210677e-17 8.807161e-17 8.839283e-36 1.8098789e-36 -1.3739427e-34 -2.6976275e-35 -3.552379e-35 3.538621e-35
-1.8225611e-34 -2.4820773e-35 -2.3511122e-34 1.8157398e-13 -5.762978e-13 -1.977552e-13 8.4351043e-13 -1.3654013e-13
-7.498793e-13 1.0595985e-12 5.0882324e-13 -6.109856e-13 1.504809e-31 1.4736838e-17 -4.133061e-32 1.9125025e-28
00000000: b992 3405 fdc2 2f85 ef15 4483 9bd0 162d
00000010: e2c0 9004 4d56 e884 91df 3205 938c c184
00000020: 9fd0 ba01 c649 afaf 8129 4b2f 72e3 33af
00000030: 8dbf 6faf 5ae1 272f a282 7daf 97b2 3b2f
00000040: 6142 31af 2742 842f 5d65 ab9d f55c bb9d
00000050: 05c0 93ac e378 c59d c4c1 e69d d80f 589e
00000060: 2628 9e9d b6fb cf9d a534 509e aede fba3
00000070: 8255 1aa4 ba8d 85a3 acc2 d6a3 0931 83a4
00000080: 5e01 55a3 d3b0 59a4 2caa 17a4 ce4b caa3
00000090: 041d 0000 0e03 0000 912d 0000 95bd 0080
000000a0: afac 0080 3c73 0000 0d15 0680 19c0 0000
000000b0: 873d 0000 7107 899e 641b af9e 89ec 83ab
000000c0: 40bc 05a5 e13a db9e bf35 d09e 1a59 549e
000000d0: 31c8 649c da53 6ea0 cd02 a81c 4d99 c61c
000000e0: 19b4 53a7 0020 a61c 0332 821c 06a6 cf1d
000000f0: c769 8b1c 2288 9d1c d90f 521c 8533 1bac
00000100: 67f2 1419 3dfe d317 971d 7817 ca6f 09ae
00000110: 1cfd 4097 cf7a 8526 5b74 a229 ffc5 5717
00000120: 3b68 90a2 03fd a4a2 517f d4a2 c69a a7a2
00000130: 64db caa2 b150 c1a2 d984 eca2 1762 9a24
00000140: 3ac9 b8a2 c70d a920 417c c9aa 555e 2621
00000150: fdf9 5021 cc15 5b21 9c3e 8021 172c 4021
00000160: b14c 5c21 bbac 9d21 4fd2 86ab 0940 7c05
00000170: a30b f314 a4af 5eac 7c5e 8704 c23e d405
00000180: 7496 9d1f d0a2 f085 eb1f 5c06 982a 0000
00000190: 625e 0080 8e82 0c99 4441 0000 7779 c722
000001a0: c551 8f9c 3efe 342b cac2 0000 f6bb 7518
000001b0: a9ac b32b 8aa2 d8ad 6f7e 0000 dc1e 0180
000001c0: 4830 2822 bcaf 0080 5fb4 712d 83be 2f1e
000001d0: 5b00 fd2b a1a6 f29b f60e 349c 987e 059c
000001e0: 1b35 339c 817d a11c 4dca 9529 d9cb db9b
000001f0: 7f2c 399c c997 5e28 6baa 4e13 ee77 9e26
00000200: 6297 2094 dd41 e92c 3fd1 1394 138d 17a4
00000210: 3a17 db94 e346 8513 7581 9e13 4ccd 581a
00000220: 896a f39d dbd9 b829 7da5 089d e2f2 9d2d
00000230: 1a6f 711b c3f2 09a6 f0f9 989d 106d a71c
00000240: 1ace a82f 1944 052e 3210 942f 37bc 1d2f
00000250: 5249 1c2e fe2e 96ad d575 202e f861 152f
00000260: eefe 4e2f f43e ce34 0509 1434 946a 1e33
00000270: cc6e d634 7695 8c34 8c66 7b33 35a2 f733
00000280: c1e2 c134 7bf1 8a33 6138 8e0e 7b0f 0000
00000290: 251e 0000 a09f 0080 3125 0080 261b aea8
000002a0: 62d7 0080 507c 0080 962a 0000 012c a5a7
000002b0: 5973 0080 2e88 0080 7dca 0000 b44e 199d
000002c0: 753e 0000 db57 a4a7 6c9a f216 4db0 0080
000002d0: ccb5 0000 f12f f59f 1634 0017 4d52 0000
000002e0: 9c11 2d97 e4ef 0080 0b5b 6e04 233a 9ea7
000002f0: 6802 0080 191c 5c9f 1f9d eaab 7744 62ac
00000300: bcfc 2eab a061 cc9e e606 f29e 3fb9 c4a4
00000310: ad39 eb9e 8a7c ec9e 0386 f6a0 fdfa dea1
00000320: 5ff1 2d2e f43c 55a1 b0ea 19a1 ed07 2e28
00000330: b4ba 0d24 443b 64a1 9b7f 3ba2 4702 5e8a
00000340: 4e6d 8d82 c789 a802 00a8 9105 cb71 c181
00000350: 3372 228a 2934 2382 8add 0480 5926 8c05
00000360: 2a5a 5c1f a781 401f e089 9b1f b850 681f
00000370: 49a5 a928 9760 421f c1df 799e af3e 771e
00000380: 7f35 431f 7820 b8aa 02b9 a624 3a73 6c24
00000390: 214d 8124 c19a 6924 3b89 d624 25b7 9424
000003a0: 4853 bd24 4d14 cb24 a2fd 3b05 acf7 1904
000003b0: d9a0 3687 346e 0f86 7ae0 3c86 3725 3c06
000003c0: 8a42 7287 49f8 0386 1a42 9c87 236f 4c2a
000003d0: a236 22ab 0ea7 5eaa 556d 6d2b 03bb 19aa
000003e0: 8012 53ab 0f20 952b 9438 0f2b 27fa 2bab
000003f0: db55 430c 60ec 8723 ce99 568b 4170 7211

e_conv4.depth_conv.bias f4 [32]
-7.560001e-21 -1.8290315e-08 3.4583535e-14 -4.4769553e-05 4.7248758e-29 4.1184503e-08 -5.9381894e-10 -8.8513745e-17
1.7664355e-10 -1.6589576e-14 1.3273093e-11 -9.4361724e-35 -3.1958384e-16 2.5108786e-05 1.4522895e-13 -1.5597368e-16
2.0323743e-05 5.3538017e-05 -4.0160542e-17 1.0673183e-05 -2.1863319e-32 4.023034e-05 -3.1658424e-15 0.00011994922
-1.6104897e-07 5.563798e-16 -1.5754647e-16 2.818326e-09 -8.855136e-06 2.2110445e-08 -0.005872484 -6.7757316e-10
00000000: eccd 0e9e d41c 9db2 1ac0 1b29 f1c6 3bb8
00000010: 6594 6f10 d7e2 3033 4b3a 23b0 4b19 cca4
00000020: bd38 422f f56c 95a8 b280 692d 43db fa86
00000030: 403a b8a5 b5a0 d237 6583 232a 4ed3 33a5
00000040: e87c aa37 028e 6038 3335 39a4 f910 3337
00000050: ac0a e38a 00bd 2838 7c1f 64a7 3f8d fb38
00000060: ceec 2cb4 955d 2026 83a3 35a5 84ac 4131
00000070: 8590 14b7 62ed bd32 f76d c0bb f93f 3ab0

e_conv4.point_conv.weight f4 [32, 32, 1, 1]
-1.9305456e-34 3.7020476e-23 -1.657837e-28 1.264175e-19 5.6132e-41 -5.305379e-23 4.6187806e-25 1.0781034e-30
-8.241529e-25 -9.6862895e-29 -4.6181128e-26 -3.362e-42 8.642337e-30 -2.2017244e-20 -3.7064707e-27 1.0351151e-29
-1.3826218e-19 -3.524442e-19 1.2587773e-30 -1.4689292e-19 -7.755e-41 -1.7912031e-19 3.553133e-29 2.8534857e-19
-3.2058272e-22 1.9694385e-28 3.8828854e-30 -3.0271427e-24 5.14608e-20 5.8102824e-23 6.306291e-18 1.20392835e-23
-8.083e-42 1.2226837e-22 4.650753e-39 2.820665e-19 6.9622e-41 -9.403558e-23 -3.4126594e-36 -2.49574e-40
1.00575105e-36 4.722041e-39 7.745719e-34 -5.928e-41 1.285288e-39 -8.497923e-19 2.2139968e-38 -4.93644e-40
-3.734203e-14 -2.2978712e-16 -5.140697e-39 -1.4213969e-17 2.4116e-41 -8.9719475e-21 -9.84129e-40 -3.6350816e-16
3.6031834e-22 6.799366e-39 6.1863516e-37 2.461754e-32 6.031821e-17 1.2418747e-30 5.8763953e-13 7.285226e-33
2.6804412e-26 7.559352e-14 -9.643562e-20 6.04162e-11 -2.8451332e-34 1.1866341e-13 1.872375e-15 3.0707982e-22
-4.2675272e-16 7.146487e-20 -3.489868e-17 8.044143e-39 1.2678409e-21 -1.2611416e-09 -6.2010003e-19 -8.424013e-22
-1.453234e-07 -1.9288708e-11 2.9655172e-22 -3.6523198e-11 7.925377e-38 -6.6379444e-11 -3.7158627e-20 -3.3291975e-10
3.085113e-13 1.1205645e-19 8.935825e-22 -1.0892094e-14 2.6625153e-11 2.4465486e-13 1.2732983e-08 2.5141727e-15
4.6262e-41 -6.5329e-41 3.8586e-41 1.1625e-41 5.8849e-41 -6.4034e-41 5.457e-41 7.176e-41
-3.6553e-41 -4.6715e-41 -2.501e-42 -3.586e-42 8.3105e-41 -9.907e-42 6.3524e-41 2.1127e-41
-5.438e-42 9.1e-42 6.08e-43 -3.4968e-41 -3.662e-41 -1.7299e-41 6.77e-41 4.8544e-41
4.889e-42 9.959e-41 -2.2481e-41 -2.8357e-41 5.7117e-41 -6.9919e-41 -2.817e-42 -6.9947e-41
3.8996736e-31 1.0636955e-18 -2.0320217e-24 4.2358887e-17 -1.528982e-39 -8.3450566e-19 2.72424e-20 2.7633642e-27
-7.005534e-21 6.015222e-25 -1.7741271e-21 2.3323e-41 5.1325105e-26 -4.798004e-16 -3.66357e-24 -2.2380528e-26
-1.1952178e-16 -2.9469803e-15 -1.2926654e-27 -3.2961803e-16 -1.5298e-41 -1.2036467e-15 -2.7158217e-24 -1.0577083e-15
4.128914e-18 -2.4626287e-25 -3.09171e-27 -1.4432656e-19 1.8302062e-16 -4.041309e-19 1.2147981e-13 4.3874228e-20
-2.1923334e-21 1.0989258e-08 6.1212966e-18 -1.3306903e-06 -1.5182757e-32 3.9995655e-08 -2.0573785e-13 -1.879072e-20
1.4181122e-15 1.5870825e-15 8.6653736e-16 1.2745523e-35 7.3799446e-19 -3.835744e-06 2.7695933e-17 -1.6067225e-19
0.0002057283 3.108372e-06 -7.189137e-15 -5.637601e-07 -5.2915623e-29 9.053647e-06 8.699839e-19 -2.2752456e-06
-6.912989e-07 -3.0686783e-17 -3.1812604e-20 -5.9378755e-09 -1.1737677e-06 -4.5809622e-07 -9.967949e-05 1.3676458e-09
-3.5615e-41 2.901e-41 -2.257e-41 -6.8374e-41 -5.1835e-41 5.5113e-41 -3.5631e-41 -4.1239e-41
5.6143e-41 -6.1699e-41 1.484e-41 -3.3375e-41 5.2892e-41 4.2508e-41 5.8513e-41 7.029e-42
3.9714e-41 6.2808e-41 -7.0551e-41 5.422e-42 3.8449e-41 5.6649e-41 -1.9558e-41 4.7924e-41
7.0872e-41 -4.34e-43 1.696e-41 -3.5667e-41 3.5905e-41 -1.641e-41 -3.8656e-41 -3.619e-41
-1.2119213e-25 8.129228e-11 -1.6145762e-27 -5.264423e-08 -4.5593e-41 -6.494104e-10 -3.7183777e-15 8.96933e-27
-7.4328e-41 -3.901155e-22 -7.593139e-38 -6.1055e-41 -1.1925509e-28 1.2831836e-06 2.399223e-21 2.5516e-41
1.6148139e-06 -9.470191e-06 -2.9033807e-16 1.5767508e-08 4.2326e-41 -2.1288164e-08 3.097e-42 2.083535e-06
-5.460003e-08 -1.926238e-24 -1.9368978e-29 4.8987103e-09 -2.0440377e-08 1.2953493e-11 -7.3281417e-06 -1.4317462e-15
00000000: 884e 8087 2105 331a e327 5291 583f 1520
00000010: 799c 0000 b546 809a c0f1 0e17 aaee ae0d
00000020: 1f10 7f97 9d93 f590 89ad 6495 5f09 0080
00000030: 9449 2f0f 6ef2 cf9e 14d4 9293 40f2 510f
00000040: 2e3b 23a0 dd0b d0a0 903f cc0d a96b 2da0
00000050: 2ed8 0080 cb77 53a0 4e2a 3410 a870 a820
00000060: c6c7 c19b efa7 7911 3082 9d0e bd36 6a98
00000070: 4a04 731f e87b 8c1a 3ca9 e822 a5df 6819
00000080: 8816 0080 3ad0 131b 68a4 3200 af80 a620
00000090: 14c2 0000 345d e39a 9228 9184 b6b7 0280
000000a0: a31e ab03 216b 3300 a5b2 8008 40a5 0080
000000b0: dcfe 0d00 7ed0 7aa1 3915 f100 1460 0580
000000c0: 6e2c 28a9 9876 84a5 2cfa 3780 c919 83a3
000000d0: 3a43 0000 ad79 299e 5ab7 0a80 568c d1a5
000000e0: 90cc d91b de09 4a00 b982 5203 a6a4 ff0a
000000f0: 9615 8b24 7581 c90d e467 252b e84e 170a
00000100: a1ba 0415 b338 aa29 c1b3 e39f 4cdb 842e
00000110: 6f17 bd87 669a 052a 39eb 0627 4d9e b91b
00000120: 9601 f6a5 ddbd a81f 17f1 20a4 cc97 5700
00000130: 3897 bf1c 7a54 adb0 6f05 37a1 a599 7e9c
00000140: 310a 1cb4 4faa a9ad 2841 b31b 77a1 20ae
00000150: d1bf d701 4ef8 91ae 067a 2f9f 4a06 b7af
00000160: 2aad ad2a fc4a 0420 cc08 871c eb36 44a8
00000170: 8432 ea2d 7bba 892a 40c0 5a32 4d2a 3527
00000180: f680 0000 1cb6 0080 906b 0000 6820 0000
00000190: 0ca4 0000 80b2 0080 1e98 0000 0ac8 0000
000001a0: e565 0080 3982 0080 f906 0080 ff09 0080
000001b0: aae7 0000 9e1b 0080 14b1 0000 e53a 0000
000001c0: 290f 0080 5e19 0000 b201 0000 7a61 0080
000001d0: 1566 0080 3930 0080 b8bc 0000 5287 0000
000001e0: a10d 0000 9e15 0100 ab3e 0080 0c4f 0080
000001f0: 389f 0000 e8c2 0080 da07 0080 fcc2 0080
00000200: 711a fd0c 48f9 9c21 5638 1d98 8c58 4324
00000210: 2ea6 1080 774d 76a1 0aa6 001f afef 5a13
00000220: af54 049e 8029 3a17 9c0c 069d 0441 0000
00000230: 4d26 7e15 054b 0aa6 3dba 8d98 61a5 dd94
00000240: 9acc 09a5 315a 54a7 bdd4 cc92 0903 bea5
00000250: a52a 0080 ba76 ada6 6420 5298 8c6e 98a6
00000260: 7d54 9822 e96d 9896 54f3 7493 0764 2aa0
00000270: 2702 5325 898e eea0 2cc6 082a b030 4f1f
00000280: e5a5 259d 45cb 3c32 03d6 e122 2c9a b2b5
00000290: b1aa 9d8a b0c7 2b33 e6a3 67aa 2c79 b19e
000002a0: 1b5f cc26 02b9 e426 2cc3 7926 9d88 8705
000002b0: 49d1 5921 cab4 80b6 2c73 ff23 35b0 3da0
000002c0: c5b8 5739 6d99 5036 0b82 01a8 4d55 17b5
000002d0: 3428 8690 1ee5 1737 1063 8021 6cb0 18b6
000002e0: b391 39b5 8f84 0da4 143b 169f 1b06 ccb1
000002f0: 5a8a 9db5 44f0 f5b4 050b d1b8 c2f7 bb30
00000300: 4863 0080 de50 0000 ea3e 0080 99be 0080
00000310: 7f90 0080 a299 0000 5363 0080 f572 0080
00000320: 819c 0000 feab 0080 5e29 0000 095d 0080
00000330: 7193 0000 7f76 0000 1ca3 0000 9813 0000
00000340: b56e 0000 15af 0000 abc4 0080 1d0f 0000
00000350: 2e6b 0000 ea9d 0000 8536 0080 9885 0000
00000360: 90c5 0000 3601 0080 472f 0000 6d63 0080
00000370: 1764 0000 bf2d 0080 c26b 0080 e264 0080
00000380: 5207 1696 7cc3 b22e fed6 ff92 f11a 62b3
00000390: 187f 0080 3282 32b0 fbf7 85a7 e8a7 3114
000003a0: 32cf 0080 73cf eb9b 75b4 ce81 32aa 0080
000003b0: 7d2c 1791 da39 ac35 b947 351d 2147 0000
000003c0: 95bc d835 29e2 1eb7 565e a7a5 1e71 8732
000003d0: fd75 0000 2bdd b6b2 a208 0000 dcd2 0b36
000003e0: 5e81 6ab3 1309 1598 be6c c48f 8351 a831
000003f0: dd94 afb2 59e1 632d 42e4 f5b6 1d56 cea6

e_conv4.point_conv.bias f4 [32]
-4.1469174e-16 -1.8334788e-06 7.288978e-05 -2.4614513e-16 -9.397145e-11 0.020419195 -3.6079045e-21 -0.0039066575
-6.545485e-10 -2.9576554e-19 -6.519178e-17 -2.445061e-15 0.023659257 -7.9715867e-13 0.0003989487 -1.7081383e-23
-8.265021e-10 -5.2990377e-15 -5.361692e-23 -6.9210186e-19 -1.750904e-18 5.5162753e-17 4.1601766e-14 -1.6407326e-16
-2.1431461e-19 1.1415519e-15 -1.3671817e-13 -2.7448225e-14 -2.3102105e-19 0.10525481 -6.895783e-13 -3.1145098e-13
00000000: b30d efa5 da15 f6b5 67dc 9838 9ce4 8da5
00000010: 39a5 ceae 2846 a73c 834d 889d 6b03 80bb
00000020: c2eb 33b0 d396 aea0 6f52 96a4 6a2f 30a7
00000030: 0fd1 c13c 5661 60ab fd29 d139 7533 a599
00000040: ea2f 63b0 ffea bea7 44a3 819a bd45 4ca1
00000050: a431 01a2 af64 7e24 925b 3b29 e129 3da5
00000060: 9e04 7da0 d583 a426 54ee 19aa 4c3b f7a8
00000070: ea5e 88a0 d58f d73d 5a19 42ab d154 afaa
